…
tus":"ok","timestamp":1642963694204,"user_tz":180,"elapsed":277,"user":{"displayName":"Richard Peters","photoUrl":"https://lh3.googleusercontent.com/a/default-user=s64","userId":"05057374812356512809"}},"outputId":"d6cbf7d9-7e91-4b86-85b9-7b9e60987d08"},"execution_count":19,"outputs":[{"output_type":"stream","name":"stdout","text":["Model: \"sequential\"\n","_________________________________________________________________\n"," Layer (type)                Output Shape              Param #   \n","=================================================================\n"," dense (Dense)               (None, 128)               20736     \n","                                                                 \n"," dropout (Dropout)           (None, 128)               0         \n","                                                                 \n"," dense_1 (Dense)             (None, 64)                8256      \n","                                                                 \n"," dense_2 (Dense)             (None, 32)                2080      \n","                                                                 \n"," batch_normalization (BatchN  (None, 32)               128       \n"," ormalization)                                                   \n","                                                                 \n"," dense_3 (Dense)             (None, 16)                528       \n","                                                                 \n"," dense_4 (Dense)             (None, 1)                 17        \n","                                                                 \n","=================================================================\n","Total params: 31,745\n","Trainable params: 31,681\n","Non-trainable params: 64\n","_________________________________________________________________\n"]}]},{"cell_type":"code","source":["## Realiza treino da Rede.\n","\n","rlr = ReduceLROnPlateau(
…
