…
tatus":"ok","timestamp":1642961961156,"user_tz":180,"elapsed":5,"user":{"displayName":"Richard Peters","photoUrl":"https://lh3.googleusercontent.com/a/default-user=s64","userId":"05057374812356512809"}},"outputId":"e7078469-c8a2-4ce6-d326-9565156b69e7"},"execution_count":17,"outputs":[{"output_type":"stream","name":"stdout","text":["Model: \"sequential\"\n","_________________________________________________________________\n"," Layer (type)                Output Shape              Param #   \n","=================================================================\n"," dense (Dense)               (None, 128)               20736     \n","                                                                 \n"," dropout (Dropout)           (None, 128)               0         \n","                                                                 \n"," dense_1 (Dense)             (None, 64)                8256      \n","                                                                 \n"," dense_2 (Dense)             (None, 32)                2080      \n","                                                                 \n"," batch_normalization (BatchN  (None, 32)               128       \n"," ormalization)                                                   \n","                                                                 \n"," dense_3 (Dense)             (None, 16)                528       \n","                                                                 \n"," dense_4 (Dense)             (None, 1)                 17        \n","                                                                 \n","=================================================================\n","Total params: 31,745\n","Trainable params: 31,681\n","Non-trainable params: 64\n","_________________________________________________________________\n"]},{"output_type":"stream","name":"stderr","text":["/usr/local/lib/python3.7/dist-packages/keras
…
